models/instrument_cnn.pth (torch, 454193 bytes, 22 tensors)

features.0.weight f4 [32, 1, 3, 3]
000000 05 41 7a 3e d0 f6 01 3f 9a aa dc 3d ca 63 68 be
       0.24438865 0.5076723 0.10774727 -0.22694317
000010 6e f1 7a 3e d0 ac 89 3d ac 40 58 3e a7 41 b5 be
       0.2450616 0.067224145 0.2111842 -0.3540165
000020 39 27 b7 bd 4c a3 51 be 53 eb 2a 3e 7f 34 cd bc
       -0.08943028 -0.20472449 0.16691332 -0.025049446
000030 a1 69 d5 bd 14 0f 04 be 77 a0 5b 3e 46 4b 03 bd
       -0.10420538 -0.12896377 0.21447931 -0.03205421
000040 34 50 58 3e b0 e0 ac bc 18 f1 18 3e 24 08 c5 be
       0.21124345 -0.021103233 0.1493572 -0.38482773
000050 78 dd 13 3e 68 2d 17 be 8a ec 93 3e 20 e0 8e 3e
       0.14439952 -0.14763415 0.28891402 0.2790537
000060 50 4d c7 bd b3 40 43 3e b5 aa 91 3e d0 70 90 be
       -0.09731543 0.1906765 0.28450552 -0.2821107
000070 b4 50 8d 3e a1 86 3e be 32 61 60 be db e4 17 3e
       0.27600634 -0.18606044 -0.21912077 0.14833395
000080 4a 1d 80 3e 9f 1f 4c be f1 a1 f6 3d b1 55 24 3e
       0.25022346 -0.19933937 0.120426066 0.16048314
000090 10 64 47 3e 62 dd 21 3d 69 27 db bd d6 8b 44 3e
       0.19471765 0.039517768 -0.10700876 0.19193968
0000a0 b6 c8 5d be 97 7e 93 be c8 1a 22 be 32 fa 8a 3e
       -0.21658596 -0.28807518 -0.15830529 0.2714401
0000b0 27 ea 6b 3d 3f 18 ba bd 4c 04 b3 3d ea 79 e5 3c
       0.057596352 -0.09086656 0.08741054 0.028012235
0000c0 69 2d 6e 3e 34 64 9b bd 73 2f 3f be e8 b9 4a 3e
       0.2325951 -0.075874716 -0.18670444 0.1979748
0000d0 17 ff 7d bd bb fd 02 be b8 ae a9 3e 9a 98 91 be
       -0.06201085 -0.12792103 0.33141112 -0.28436738
0000e0 8e cc 0a 3e d6 d2 8a be 1c e5 d5 bc a5 15 90 be
       0.13554594 -0.2711398 -0.026110224 -0.28141513
0000f0 36 36 e3 bc 3a 0b 81 3e 80 db 5e 3e 57 91 84 be
       -0.02773581 0.25203878 0.2176342 -0.25892136
000100 d1 8d 20 bc 80 54 49 bc 10 4e 80 be 3b 8a cd 3d
       -0.009799437 -0.012288213 -0.25059557 0.10036131
000110 41 16 2e 3d ad 4d 83 be 05 7f 22 3e a1 5b bd bd
       0.04250169 -0.256452 0.15868767 -0.092459925
000120 41 39 6d bc 5f b4 e9 3e f1 4c 67 3e d6 12 96 3e
       -0.014478982 0.45645425 0.22587945 0.29311246
000130 04 ce b4 3e ed f9 0f bd f5 9d bd 3c df 26 11 bc
       0.35313427 -0.035150457 0.023146609 -0.008859365
000140 0a 27 22 3e 59 d4 f3 bd 5c a8 36 3c dc 32 27 3c
       0.15835205 -0.119057365 0.011148538 0.010204997
000150 27 a5 84 be 93 e2 59 bc 48 08 80 3c bb 86 3b be
       -0.2590725 -0.013298648 0.015628949 -0.18313114
000160 57 49 99 be 13 58 52 3e f0 94 22 3d 85 6c 46 be
       -0.29938766 0.2054141 0.03969282 -0.19377334
000170 19 8b 44 be 4d 91 60 be b6 d5 98 be f4 65 9b 3e
       -0.19193687 -0.21930428 -0.29850549 0.30351222
000180 94 b8 8d 3e a9 a4 36 3d 4a bf 6f 3e dc e5 b5 3e
       0.27679884 0.044590626 0.23412815 0.3552693
000190 6e c5 4f 3e 83 fe 7f be b8 f4 35 bd e1 01 17 bd
       0.20290157 -0.24999432 -0.044422835 -0.036867026
0001a0 98 05 2d 3e e1 fa 84 be b5 87 95 bd aa 47 ec 3d
       0.16896665 -0.25972655 -0.07301275 0.11537106
0001b0 1b 15 54 3c 6a fc 5e be 6b d4 9a be 83 85 39 be
       0.012944485 -0.21775976 -0.30240187 -0.18117337
0001c0 7a 4e 2e 3e f5 96 99 be 9e 78 27 be 99 12 90 3e
       0.17022124 -0.29997984 -0.16354606 0.2813919
0001d0 15 00 5f 3e a3 8c 9f 3e 87 92 a1 3d 0c d1 bd be
       0.21777375 0.31161985 0.07889276 -0.37073553
0001e0 56 32 51 3d 46 77 65 3e 18 35 9a 3d 65 af a2 bc
       0.051073395 0.2240878 0.07529658 -0.019859025
0001f0 cd c8 1b 3d 2c 2c 9d be 2a 3f 05 3e e4 76 92 3d
       0.038033295 -0.30697763 0.13012376 0.07151583
000200 8b 17 68 3e c8 20 34 be 6f 56 96 be f8 6a 23 3e
       0.22665231 -0.1759063 -0.2936282 0.15958774
000210 16 25 05 3d a8 62 6d 3e 2e 9a 06 3d 00 cf 6e 3e
       0.03250607 0.23182166 0.03286188 0.23321152
000220 3f cd 07 3d 9c 2c 91 bd 1b 1e a3 be cd d6 3d 3e
       0.033154722 -0.07088587 -0.31858906 0.18538971
000230 de d0 8b 3e f1 9e 70 3e ff 8e 9f be 80 91 82 be
       0.2730779 0.23498131 -0.31163785 -0.25501633
000240 f9 5c 69 3e 11 c0 a5 be 8e 8b d4 bd d7 4e a7 3e
       0.22789373 -0.32373098 -0.103781804 0.32677338
000250 45 a3 87 be e0 f0 55 3e db fa 90 3d e9 4b 85 be
       -0.26491752 0.20892668 0.07079097 -0.26034477
000260 1e cc 06 be be fe 0f bd ba c5 03 be 7d 7f ba bc
       -0.13163802 -0.03515505 -0.12868395 -0.02276587
000270 c0 9f 17 3e 45 72 96 be 4e 0e cc 3b 31 74 af bc
       0.14807034 -0.29384056 0.006227291 -0.021417709
000280 b5 ff b7 be 41 43 84 bc 5d 14 2b be 57 5f 9f 3e
       -0.35937276 -0.01614535 -0.16706987 0.31127426
000290 9c aa 29 be a1 f9 40 3e 2b a6 a3 bd f3 6f 8d 3e
       -0.16568989 0.18845226 -0.079906784 0.27624473
0002a0 3e 4c 88 be 79 c6 a4 bd 74 a4 00 bc 29 44 6f be
       -0.26620668 -0.08045668 -0.007851709 -0.23365845
0002b0 c3 56 38 3e 88 40 5b 3e 39 1e a9 bd 8c 4a ed bd
       0.18001847 0.21411335 -0.08257718 -0.11586484
0002c0 f9 14 1d 3e dc 18 0d be 23 b3 61 be 05 68 9a 3e
       0.15340032 -0.13779014 -0.22040991 0.30157486
0002d0 00 48 1f 3e c8 f9 ec bd fa ff 25 3e 05 f9 1b 3e
       0.1555481 -0.115710795 0.16210929 0.15231712
0002e0 fd cb 1f bd 35 52 87 be ac 3d 17 3e 23 3c 4f bc
       -0.039012898 -0.26429906 0.1476962 -0.012648615
0002f0 55 77 72 be 10 33 4b be 55 be 24 bd 16 41 5c bd
       -0.23678334 -0.19843698 -0.040220577 -0.05377301
000300 3a d7 34 3b 7f 65 6c 3e 11 77 2a 3e b1 aa 44 3e
       0.0027594105 0.23085593 0.16646983 0.19205739
000310 3c 0b 28 3d aa 1a a4 be 80 aa 99 3d dc 11 c4 3c
       0.04102634 -0.32051593 0.075032234 0.023934297
000320 10 8f 1a 3d a9 9b 7a 3d 0f c6 64 3e 29 66 ba 3d
       0.03773409 0.061183605 0.22341178 0.09101517
000330 95 5a 46 be fb 72 1e be a6 09 0f bd 20 45 94 3e
       -0.19370492 -0.15473549 -0.03492131 0.28958988
000340 db df 66 3d aa 0e 71 be 26 81 84 be b4 d1 ad be
       0.05636583 -0.2354075 -0.25879782 -0.33949053
000350 b5 e9 a2 bc fc b0 63 3e 46 ed 17 3e e2 e5 3f 3e
       -0.01988683 0.22235483 0.14836606 0.18740037
000360 01 16 92 3e ee 4c 86 be 40 34 a8 3e 73 ee 52 3d
       0.28532413 -0.26230568 0.32852364 0.051496934
000370 24 6c 81 be 24 d5 82 3c ec 78 a5 3d 9a 4e 0f be
       -0.25277817 0.015970774 0.08079705 -0.13994828
000380 4d eb 8b bd f1 53 62 3d 24 f6 83 3d 73 22 47 3e
       -0.068319894 0.055255834 0.06443432 0.19446735
000390 7e 4a 29 be e7 ae 90 be cb 8d 63 be 9b b0 59 3e
       -0.16532323 -0.2825844 -0.22222058 0.21258776
0003a0 0c d0 ec bd 4a 68 83 3e 42 27 8f bd fb e0 65 3e
       -0.11563119 0.25665504 -0.0698991 0.22449104
0003b0 ee c0 8c 3e e0 44 13 3d 6e 60 a8 bd cf 93 97 be
       0.27490944 0.035954356 -0.082215175 -0.29604957
0003c0 e2 c8 6b 3e 40 95 8b bd f5 9e 0e be cc fa cb 3e
       0.2302585 -0.068155766 -0.13927825 0.3983978
0003d0 1f 68 39 3e 55 a6 e9 bd bb 2d 08 3e 3e d9 7f be
       0.18106125 -0.114086784 0.13298695 -0.24985215
0003e0 e4 6c 72 bc c7 36 49 be 01 dc 7e 3b 44 8f 29 be
       -0.014796469 -0.19649802 0.0038888457 -0.16558558
0003f0 18 8f 2d 3e f9 7e cd bd 9a 83 7f 3e 41 7b 35 3e
       0.16949117 -0.10033984 0.24952546 0.17722799

features.0.bias f4 [32]
000000 29 0c 4b be 27 4a 47 be 48 63 12 be 4a d5 87 be
       -0.19828857 -0.1946188 -0.14295685 -0.26529914
000010 75 64 8b 3d 23 ef c7 3d 32 25 95 3d b3 ad 0f be
       0.0680627 0.097624086 0.07282485 -0.14031105
000020 d4 71 8f 3e f9 88 80 3d b1 e2 9c bd 78 e2 86 be
       0.2801653 0.062761255 -0.076604255 -0.26344657
000030 97 85 0d 3e 20 fa 78 3e c2 70 b0 3e 2a 02 4a bd
       0.13820492 0.24314165 0.34461027 -0.04931847
000040 af 05 51 bd 15 5d 75 3d 0b 91 8b be 5c 71 9e 3e
       -0.05103081 0.059903223 -0.27259097 0.3094586
000050 71 66 b0 bd 77 7c 68 3e 41 45 9f bd e2 d4 87 3e
       -0.08613289 0.2270373 -0.07776881 0.26529604
000060 85 6b ad 3e 62 a9 96 bd 74 85 61 bd 85 97 9a bd
       0.33871093 -0.07356526 -0.05505891 -0.07548431
000070 ee 19 89 be f0 e3 64 be f9 f3 db 3d e4 71 76 be
       -0.26777595 -0.22352576 0.107398935 -0.24066883

features.1.weight f4 [32]
000000 e5 4d 6c 3f 6a 06 70 3f b2 f7 60 3f bb 87 93 3f
       0.9230636 0.9375979 0.87877953 1.1525797
000010 12 6e 5a 3f 2a d4 8b 3f ed 17 85 3f 39 8e 60 3f
       0.85324204 1.0924122 1.0397927 0.87717015
000020 b9 8e 56 3f 55 61 3c 3f 5a 75 8b 3f 3c a7 80 3f
       0.8381153 0.73586017 1.0895188 1.0051036
000030 e0 d5 65 3f 22 c3 8d 3f 5e 89 70 3f 2c 9a 7a 3f
       0.8977947 1.1075175 0.93959606 0.978915
000040 fe b0 72 3f 9a 4a 51 3f 5d e0 7a 3f 1d 13 8a 3f
       0.9480132 0.8175446 0.979986 1.0787083
000050 82 ee 62 3f 3a c0 86 3f 8c b4 7e 3f 6c 05 84 3f
       0.88645184 1.0527413 0.9949424 1.0314155
000060 0e ce 87 3f e4 12 88 3f 31 69 69 3f ed e4 73 3f
       1.0609758 1.0630765 0.91176134 0.9527119
000070 8f 88 81 3f cd e7 90 3f 9f c5 4a 3f c6 00 7c 3f
       1.0119799 1.132074 0.79207796 0.9843868

features.1.bias f4 [32]
000000 74 f4 5c be ea 77 18 be 6e cc 6b be 53 c7 01 bd
       -0.21577626 -0.14889494 -0.23027202 -0.03168423
000010 dd ba c7 bd 77 8a 2b 3e e4 4f 1a ba b2 b2 43 be
       -0.09752438 0.16752039 -0.00058865384 -0.19111136
000020 d6 a4 85 be a6 b5 b8 be 09 2d d6 3d 66 23 0e be
       -0.26102322 -0.36076087 0.104578085 -0.13880691
000030 b6 17 d8 bd b6 73 70 3c d6 97 88 bd 31 2a 12 3e
       -0.105513975 0.014676025 -0.066695854 0.14273907
000040 c1 ab de bd aa fd 8c be 72 0e 2e 3e 3b c3 c7 3b
       -0.10872603 -0.2753728 0.16997698 0.0060962713
000050 f6 10 d8 bd a3 ac cd 3c 5e 75 31 bd c5 dc de 3c
       -0.1055011 0.025106734 -0.04332482 0.02720488
000060 9e 4a cc bd 72 ab a9 3d 21 5c 1d be 2e e1 ce 3c
       -0.099751696 0.08284654 -0.15367176 0.025253858
000070 0d 6c 9e bd da cf 77 3d 1f 8f 3a be 36 72 d0 bd
       -0.07735453 0.060500957 -0.18218659 -0.10178034

features.1.running_mean f4 [32]
000000 8c 96 dd be 94 6d 61 be 33 91 bf be f5 14 96 be
       -0.4327892 -0.22014457 -0.37415466 -0.29312864
000010 54 ab 94 3d b9 90 c0 3d 1a 83 78 3d f7 de 44 3d
       0.07259241 0.09402604 0.060671903 0.0480642
000020 ec f7 4d be a5 71 8a 3e 1f e3 94 bd b2 c5 a4 be
       -0.20114106 0.2703983 -0.072698824 -0.3218208
000030 5c f8 97 3e ab 79 58 3e 0f e8 54 3e 56 c5 5c bd
       0.2968167 0.21140163 0.20791648 -0.05389913
000040 d0 ce 01 3d d9 81 99 3e c1 d6 8f be 25 ee 93 3e
       0.031691372 0.29981878 -0.28093532 0.28892627
000050 e1 a1 90 bd ee e2 5b 3e 86 57 f7 bd 3f 62 81 3e
       -0.07062126 0.21473286 -0.12077241 0.25270268
000060 6e 2d a8 3e 7e fc 8e bd 6c 5f b9 bd e9 30 8e bd
       0.3284716 -0.06981753 -0.090514034 -0.069429226
000070 8b 59 93 be b2 28 6c be b1 8d e2 3e 0a e1 8a be
       -0.28779253 -0.23062399 0.44248727 -0.27124816

features.1.running_var f4 [32]
000000 61 73 aa 3d 0b 75 6e 3b 6c 73 9b 3d 71 60 1f 3c
       0.08322788 0.003638568 0.07590374 0.009727583
000010 74 b7 7e 3b fe 7e 48 3b ba e6 9f 3b de 26 43 3d
       0.003886667 0.0030593271 0.0048797997 0.04764449
000020 99 1d 95 3e 50 5d 6d 3d f5 94 52 3c 4b e2 10 3c
       0.29124144 0.057950318 0.012852897 0.008843015
000030 d2 01 29 3d 31 9a 23 3c 94 9c cc 3c e3 1c a2 3b
       0.0412615 0.009985493 0.024977006 0.004947291
000040 5e f2 80 3c bc 53 97 3d 7d af 87 3b 05 01 1c 3c
       0.01574057 0.07389018 0.004140793 0.009521727
000050 c6 f3 d0 3b 49 27 6f 3b 44 8e ed 3b 65 10 fa 3b
       0.0063767163 0.0036491922 0.0072496254 0.007631349
000060 3a d4 c8 3b 9e 14 ad 3b 57 c9 d6 3b 5c d3 47 3c
       0.006128815 0.005281999 0.0065547633 0.012196388
000070 13 f3 cb 3b 01 08 8a 3b a8 f3 10 3e 10 d2 a6 3b
       0.006224045 0.00421238 0.14155447 0.0050909594

features.4.weight f4 [64, 32, 3, 3]
000000 78 8a ad 3b 5f dd 9c bb bb 85 b6 bc 79 72 1c 3d
       0.005296048 -0.0047871317 -0.022280565 0.038195107
000010 b3 e1 b1 3c 96 47 09 3d b7 e9 80 bd 19 9e 7e bb
       0.021714067 0.033515535 -0.062945776 -0.0038851558
000020 c8 e9 fa bc 5b 4e 1c 3c ad 05 e6 bc 80 00 5a bd
       -0.030629054 0.009540166 -0.028078878 -0.053223133
000030 c5 42 9d bd 43 00 65 3c 21 eb c9 bb 34 03 3a bd
       -0.07678751 0.013977113 -0.0061620628 -0.04541321
000040 ba 31 17 3d ff d1 fb bb ec ae d0 3c 31 7a 8d 3c
       0.036912657 -0.0076849456 0.025474034 0.01727018
000050 e7 a2 38 bd 9b 05 60 bd a4 79 8d bd c0 ce 8c bd
       -0.04507723 -0.054692846 -0.06907967 -0.06875372
000060 9a 5f 91 bb b2 f8 46 bc ba 38 a2 bd 1c 41 8f bd
       -0.0044364454 -0.0121442545 -0.07920976 -0.069948405
000070 b3 81 bc bc d6 de 9e bd 0a b3 16 be 85 d8 d6 bd
       -0.023011064 -0.07757346 -0.14716735 -0.104905166
000080 a6 8b c0 bd 45 51 7b bd 15 31 01 bd 3c 6f 0a be
       -0.09401636 -0.0613568 -0.03154095 -0.13518995
000090 c8 5e 73 bc 1f ca e0 bb 8b 78 60 bd 32 93 e6 3a
       -0.014854141 -0.006860032 -0.05480246 0.0017591475
0000a0 6f 98 51 bb 4c 93 dd 3b 10 04 69 3c b5 9d 0b 3c
       -0.0031981727 0.006761944 0.01422216 0.008521487
0000b0 40 6a 18 bd b3 47 8b 3c 79 67 3e bd dc 0b 64 bd
       -0.037210703 0.017001962 -0.046485398 -0.055675372
0000c0 ad 7f 49 bd 59 82 9c bd 21 f2 80 bd 98 46 c7 bd
       -0.049194027 -0.07642049 -0.062961824 -0.097302616
0000d0 30 7b a2 bd 4d cc 41 bd 12 ed 12 3c 9d 41 0f 3d
       -0.079336524 -0.047313977 0.008967655 0.034974683
0000e0 2e 91 3d 3d 47 9d d7 bc 71 fd be bc 3c 91 28 bc
       0.046281032 -0.026320113 -0.02331421 -0.010288533
0000f0 6e 71 70 3d 15 f3 f9 3d 3b fb 04 3d cc 02 d7 bd
       0.058701925 0.12204567 0.032466155 -0.1049858
000100 59 ed 5b bd 9d be 2e bc a7 c1 21 bd d5 5d 90 bc
       -0.05369315 -0.010665563 -0.039491322 -0.017622868
000110 ed 64 a0 bd ec bd cd ba 69 ae 33 bd dd 56 e6 bc
       -0.0783175 -0.001569686 -0.043867502 -0.028117592
000120 44 23 d8 3b 70 8b 19 3d 61 8d c8 3b d8 d2 3a 3c
       0.006596001 0.037486494 0.0061203693 0.011402808
000130 4d 49 9e bd 0b fa 5a bc 18 ba 24 bd 53 e6 5f bd
       -0.07728825 -0.013365279 -0.040216535 -0.054663014
000140 f3 11 e4 3c 03 ac 85 bd 24 13 05 bd 32 c5 a3 bc
       0.02784059 -0.06526949 -0.032488957 -0.019991491
000150 a1 c9 9b bd 57 92 30 bc 42 65 45 3b ac 06 8a bd
       -0.07606817 -0.010777078 0.0030120169 -0.06739554
000160 b7 d2 75 bd 83 ca 7d bd f3 0e 5d bc 71 d0 72 3b
       -0.060015406 -0.06196071 -0.013492334 0.003705051
000170 a6 4b fd bd b7 b4 c0 bc 50 0f 92 bd 80 c3 6c bd
       -0.123679444 -0.023523672 -0.07131827 -0.05780363
000180 5e d3 74 bb 21 8f 0d 3d f8 61 74 3c b3 a5 aa 3d
       -0.003735743 0.034560326 0.014915936 0.08332386
000190 8b 31 05 3d c6 2e 34 3d 27 c6 97 3c dc 21 79 3d
       0.03251795 0.04398992 0.018527104 0.060823306
0001a0 4c 1a 5b bc ef 85 3a 3d de b5 87 bd bf b2 18 bd
       -0.013372969 0.045537885 -0.06626485 -0.03727984
0001b0 75 9a 10 bd 14 b4 41 bd 51 ef a4 3a 77 5e 54 bd
       -0.03530355 -0.047290877 0.0012583529 -0.0518479
0001c0 52 1f 03 3c 6e 69 f7 bb f9 14 f7 3b e5 95 ce 3b
       0.008003073 -0.00755041 0.007540342 0.00630449
0001d0 d6 98 58 bc d2 6c 96 bd 22 42 33 3c 59 c0 9d 3b
       -0.013220033 -0.073449746 0.01094106 0.0048141894
0001e0 77 19 ad 3c 16 e4 eb bc ce 66 22 bd e1 fb 85 3c
       0.021130307 -0.028795283 -0.039648823 0.016355457
0001f0 6d 93 fb b8 f3 aa a8 bd 3c da c6 3c 02 82 7c 3d
       -0.00011996073 -0.08235731 0.024273984 0.061647423
000200 ec 07 80 3d 07 23 da bc e0 ea 42 3c 6f e6 bb bc
       0.06251511 -0.02662803 0.011896819 -0.022937028
000210 d3 17 72 bd 2b 15 35 3d 82 ea fa 3c 5b 8e 3c 3d
       -0.05910475 0.04420964 0.0306294 0.0460342
000220 1f e6 e6 3c d4 ee 2a 3d d2 3a 7a bc 6c 7e cf 3c
       0.028185902 0.04173167 -0.015272813 0.025328837
000230 d5 db d6 3d ed a8 89 3c dd 9c 02 bd 87 4f 7f 3d
       0.104911484 0.016804183 -0.031887878 0.062331703
000240 7e cf 7a bd 4d 83 99 bd 53 08 fb bc 32 83 73 bd
       -0.061233036 -0.07495747 -0.030643618 -0.05945129
000250 e0 24 e2 bd 07 63 8b bd 85 74 0a bd fd 82 ba 3b
       -0.110421896 -0.06805997 -0.033802528 0.0056918846
000260 97 29 e5 bd f2 2f 5a bd b0 14 21 bd dc b2 09 3c
       -0.11189573 -0.05326838 -0.03932637 0.00840446
000270 94 1f 04 bc cb 15 39 bd e5 e8 32 bc 2d 38 a6 bd
       -0.008064169 -0.0451868 -0.010919784 -0.081161834
000280 1b 00 b4 bd 11 20 b2 bd 8f f4 d8 bc 9b 02 3f bb
       -0.087890826 -0.086975224 -0.026483802 -0.002914584
000290 1b 7a 85 bc 79 cf ae 3c ba d4 e8 bc 68 3c b7 bc
       -0.016293576 0.021339165 -0.028421748 -0.022367671
0002a0 95 c9 2c bc ac fd 6e 3d 43 e3 0f 3d 90 9b 41 bd
       -0.010546108 0.05834739 0.035128843 -0.047267497
0002b0 72 43 7d bc 6a e3 1a bd 98 96 1b bd fe 13 7d bc
       -0.015457975 -0.037814535 -0.037985414 -0.015446661
0002c0 ce 46 d3 bd 94 42 4b bd 54 ba ed bd 86 47 80 bd
       -0.10316239 -0.04962404 -0.11607805 -0.06263642
0002d0 42 33 bf bd 15 08 13 bd c0 19 c9 bd 73 11 c2 3b
       -0.093359485 -0.03589638 -0.098193645 0.0059224903
0002e0 be 90 20 3c 7b 0b 8d bc 49 5e c7 bd a3 7a 85 bd
       0.009800134 -0.017217388 -0.0973478 -0.06517532
0002f0 48 91 21 bd f3 b2 b7 3d db b2 d6 3d 12 64 fb 3c
       -0.03944519 0.08969679 0.10483333 0.030687366
000300 da 6c 31 bc 4c 7d d0 39 fb fc 44 3d 72 c9 88 3d
       -0.010829175 0.00039766205 0.048092823 0.06679048
000310 51 44 9d 3d 89 56 f8 bc c8 61 02 3d 1f 9d 04 3d
       0.07679046 -0.0303147 0.031831533 0.032376405
000320 f5 5c 80 3c 70 19 0e 3c db 63 7d 3c 9e af d7 ba
       0.015669325 0.008673057 0.015465702 -0.0016455536
000330 cc 32 cf 3d f6 26 89 3d 31 1f 7a 3c 74 ea 77 3d
       0.101171106 0.06696884 0.015266226 0.060526326
000340 23 6c 96 3c 92 e0 5a bd e2 6d 8d bc 1e e9 9c 3d
       0.01836211 -0.053436823 -0.01726431 0.07661651
000350 eb dd 22 3d d1 97 8a 3d b8 52 a3 3d b8 9a 6b bc
       0.03976242 0.06767238 0.07974762 -0.01438015
000360 c2 55 60 bd aa 2d bf 3b 62 9a 0d bc 1e fc 98 bd
       -0.054769285 0.005834301 -0.008642765 -0.074699625
000370 7c fa 4f bc d6 d7 da bc 30 93 96 bc b7 a1 4d bb
       -0.0126939975 -0.026714247 -0.018380731 -0.0031376907
000380 e6 e3 38 bb a0 3a f9 bc ab 16 42 3b 18 ef c4 bc
       -0.002821201 -0.030423462 0.0029615562 -0.02403979
000390 de 74 72 3d 5c 58 9d 3d 51 ba 78 bd ec 52 58 3d
       0.059193484 0.07682869 -0.06072456 0.052813455
0003a0 a0 37 d6 3d d6 45 57 3c 98 6c 6a 3d 29 c8 5b 3d
       0.104598284 0.013139209 0.05723247 0.053657684
0003b0 4c 01 32 3d 88 c5 50 bc a9 a2 48 3d f2 14 2e bd
       0.043458268 -0.012742408 0.04898325 -0.042500444
0003c0 50 e4 0b bc 69 98 a0 3c 7a 40 17 3d 6e c2 db bc
       -0.008538321 0.019603925 0.036926724 -0.02682611
0003d0 06 e0 43 3d 67 0c ae bc 00 19 33 bd 67 b5 42 bd
       0.047821067 -0.021246148 -0.043725014 -0.04753628
0003e0 d2 7c a0 b9 11 42 61 3b a1 f4 8e 3c 86 0d 21 bd
       -0.00030610577 0.0034371654 0.017450633 -0.039319538
0003f0 0f 0d 24 bc a2 3b e7 3c 02 40 e2 3c cf 81 16 3d
       -0.010012879 0.028226677 0.027618412 0.03674489

features.4.bias f4 [64]
000000 8f fa 53 3c cd 0a 44 3d b8 e1 06 3d db 37 ba 3c
       0.012938156 0.047861863 0.032930106 0.022731712
000010 fe 5e 73 bd b0 cf b5 bc 51 41 cb bc d8 0d a6 3d
       -0.059416763 -0.02219376 -0.024811419 0.08108109
000020 28 d7 79 bd a8 52 b0 bc 08 f6 d9 bb b3 33 c8 3c
       -0.060996205 -0.021523789 -0.0066516437 0.024438715
000030 18 33 4e bc 5a a0 8b 3d 1d 57 5d bd dd 0a 7e 3d
       -0.012585424 0.06817694 -0.054038156 0.06202208
000040 48 7d 5f bd f0 9c 4a 3c 7e b5 a8 bd 0c 6a 4f 3c
       -0.054562837 0.012366518 -0.08237742 0.012659561
000050 68 5e 76 bc 83 5f 80 bd e0 8f 50 bc 3f f6 10 3d
       -0.015037157 -0.062682174 -0.012729615 0.03539109
000060 87 fa 74 3d 24 00 9c bc 2e bb 5e bd cd 51 28 3d
       0.059809234 -0.019043036 -0.054377727 0.041093636
000070 13 19 3e bd 32 88 19 3d 3d b5 79 3c 63 33 d2 3d
       -0.04641063 0.0374834 0.0152409645 0.102637075
000080 cf 7a a9 3c 20 bb d1 3c 32 3d 5e bc 0a 64 71 bd
       0.020688443 0.025601923 -0.013564395 -0.058933295
000090 05 91 8b bd da 42 96 3d d6 0d 1e 3c 92 01 d3 bd
       -0.0681477 0.0733697 0.009646853 -0.10303034
0000a0 5f 8e 90 3a 3a 95 fa 3c 4e 7a 5a 3d 81 ef 7c bc
       0.0011028758 0.030588735 0.053339295 -0.015437962
0000b0 14 e6 93 3d ce 49 18 bc ec 62 d6 bd a3 97 5b 3c
       0.07221618 -0.00929494 -0.104680866 0.013402852
0000c0 3c 2f 29 bd 4e 3a 79 bd 95 5d 45 3d 71 e6 e2 3c
       -0.04130481 -0.06084662 0.04818495 0.027697774
0000d0 24 84 1e 3c e8 c4 35 bd 82 34 55 bd 2e 80 89 3d
       0.0096750595 -0.044377238 -0.05205203 0.067139015
0000e0 3d c3 4e 3d 2b 75 b4 3b 6b 69 d6 bc 71 f1 c3 3c
       0.050479162 0.0055071316 -0.026173314 0.02391884
0000f0 de 5e 02 bc 56 c1 6c 3c ef 24 07 bd 26 28 89 bd
       -0.007957188 0.014450392 -0.032994207 -0.06697111

features.5.weight f4 [64]
000000 f6 91 70 3f ae 98 6f 3f 99 60 78 3f a4 ad 76 3f
       0.9397272 0.93592346 0.97022396 0.96358705
000010 ee 8a 79 3f 58 6b 6f 3f 5d 26 7d 3f 6c d9 6b 3f
       0.97477615 0.9352317 0.9888666 0.92128634
000020 f6 0e 81 3f 5e a6 76 3f b2 5c 81 3f cb 9d 69 3f
       1.0082691 0.96347606 1.0106413 0.912564
000030 d0 02 6b 3f f9 25 83 3f 90 ce 70 3f 18 03 83 3f
       0.91801167 1.0245963 0.9406519 1.0235319
000040 b5 ff 7d 3f 20 bd 86 3f 3a a2 86 3f c6 ec 80 3f
       0.992183 1.0526466 1.0518258 1.0072258
000050 56 81 6b 3f 83 16 62 3f 19 cd 85 3f 9e d5 82 3f
       0.91994226 0.883156 1.0453216 1.0221441
000060 b1 6c 7d 3f 88 f6 7b 3f a6 95 82 3f 0f 90 72 3f
       0.98993975 0.9842305 1.0201919 0.94751066
000070 65 c3 86 3f 09 ae 76 3f 4b f0 7b 3f cb 64 6b 3f
       1.052838 0.96359307 0.9841353 0.9195067
000080 81 77 7c 3f b8 b6 7e 3f b1 f7 7d 3f d2 44 84 3f
       0.9861985 0.99497557 0.9920607 1.0333502
000090 9e 9d 67 3f 34 ad 84 3f 84 f8 87 3f d3 e3 84 3f
       0.9047488 1.0365357 1.0622716 1.0382026
0000a0 fd 4e 81 3f 3a a6 78 3f 90 93 81 3f a8 e5 6a 3f
       1.010223 0.9712864 1.0123158 0.9175668
0000b0 9e ac 6e 3f 59 94 81 3f 1f e1 80 3f f9 24 83 3f
       0.9323214 1.0123397 1.0068702 1.0245658
0000c0 7a e2 73 3f a6 20 77 3f c0 c9 88 3f 5f 30 6d 3f
       0.9526745 0.9653419 1.0686569 0.92651933
0000d0 cf da 72 3f df d0 81 3f 28 0a 67 3f 93 68 77 3f
       0.94865125 1.0141867 0.9024987 0.9664394
0000e0 dd 58 83 3f fb 5f 72 3f b8 f9 7d 3f d5 8b 74 3f
       1.0261494 0.94677705 0.99209166 0.95525867
0000f0 d9 2a 71 3f cc 6f 87 3f c8 f4 74 3f 54 7a 78 3f
       0.94206005 1.0580993 0.95686007 0.9706166

features.5.bias f4 [64]
000000 f3 9e 3b be 7e c7 69 be f5 52 35 be 23 37 83 be
       -0.18322353 -0.22830006 -0.17707427 -0.25628003
000010 66 87 cb be 75 11 90 be 2b 0b 99 be b0 bc 67 be
       -0.39751738 -0.2813832 -0.29891333 -0.22630572
000020 77 74 fc bd 5f 62 07 be c4 62 54 be 3d bf ac be
       -0.123269014 -0.1322112 -0.20740801 -0.33739653
000030 74 0c 84 be 5c fb 47 be 14 87 5a be f5 c4 4d be
       -0.2579075 -0.1952948 -0.2134059 -0.20094664
000040 18 66 b8 bd 14 10 5c be 21 b5 9e be f5 ee 1e be
       -0.09003848 -0.21490508 -0.30997565 -0.15520842
000050 1c 67 80 be d8 36 39 be 14 43 6a be 9c 94 f6 bd
       -0.25078666 -0.18087327 -0.22877151 -0.12040064
000060 98 78 2f be 76 bd bd bd 9c 4e 0f be 36 69 58 be
       -0.17135847 -0.092646524 -0.13994831 -0.21133885
000070 b6 d0 37 be d1 74 2a be 11 94 dd bd 79 ed 2d be
       -0.1795071 -0.16646124 -0.10819257 -0.1698512
000080 2d 28 75 be db e1 7b be 94 fe a5 be fe c7 d9 bd
       -0.23941107 -0.24597876 -0.3242079 -0.106338486
000090 aa ee 1f be 3e 10 28 be f5 b2 3e be d6 29 1d be
       -0.15618387 -0.16412446 -0.18622954 -0.1534799
0000a0 75 ca 35 be 32 62 f2 bd 01 a1 1f be aa e6 ab bd
       -0.17753012 -0.118351355 -0.15588762 -0.08393605
0000b0 16 57 a0 be fd c2 b6 be f8 ef 82 be 31 17 2d be
       -0.3131644 -0.3569564 -0.25573707 -0.16903378
0000c0 b0 5d 6b be c6 50 55 be f6 14 c0 be d2 f8 65 be
       -0.22984958 -0.20831594 -0.37515992 -0.22458199
0000d0 ae 00 41 be 0e f5 29 be ba 27 35 be fc d4 98 be
       -0.18847916 -0.16597387 -0.17690936 -0.29849994
0000e0 bb 6a 58 be 6e 4c 48 be a1 4f b3 be 0a 8f 61 be
       -0.21134464 -0.19560406 -0.3502169 -0.22027221
0000f0 c0 51 70 be 4e bf 10 be 20 24 11 be f2 88 f0 bd
       -0.23468685 -0.14135477 -0.14173937 -0.1174487

features.5.running_mean f4 [64]
000000 db 28 9e bf 1c 7e 06 40 80 77 cf bf 8e da 97 bf
       -1.2356218 2.101447 -1.6208344 -1.1863573
000010 80 7b 9d bf b2 7a 6a bf 13 4e 94 3e 0d 2c bd 3f
       -1.2303314 -0.9159347 0.28965816 1.4779068
000020 b9 53 8b bf 94 1c f4 bf 5f f2 d4 bf 2e b7 85 bf
       -1.0884925 -1.9071221 -1.6636466 -1.0446527
000030 db fb ab be 65 70 e2 bf dc 20 61 c0 36 8e 00 c0
       -0.33590588 -1.769055 -3.5176306 -2.0086799
000040 5c a8 10 c0 4a 6d 92 be ed 72 3e bf e2 4a 5a bf
       -2.2602758 -0.28599006 -0.7439411 -0.8527051
000050 81 35 a6 bf c0 eb 24 40 04 50 ec bf 42 a7 10 bf
       -1.2985078 2.576889 -1.8461919 -0.56505215
000060 d7 7e 0c c0 2e dd 6b bf b3 f2 c1 bf 88 a6 07 c0
       -2.1952417 -0.9213437 -1.5152191 -2.1195393
000070 63 05 46 bf 78 1b 1a c0 30 c8 f7 be 52 46 e7 bf
       -0.7735197 -2.4079266 -0.48394918 -1.8068335
000080 cf d0 d7 be 5a a2 dd bf 46 8e 1f 3e a2 b6 07 c0
       -0.42151496 -1.7315171 0.15581617 -2.120522
000090 a7 db 5e 3f 3e 16 b6 bf f6 26 81 bf 0b 29 04 c0
       0.8705391 -1.4225538 -1.0090015 -2.065005
0000a0 74 97 be bf ae 38 0e c0 80 0d b3 bf f0 d0 04 c0
       -1.488997 -2.2222095 -1.3988495 -2.0752525
0000b0 af 3b b3 bf 98 04 d0 be 1b 29 43 be c0 ce b6 bf
       -1.4002589 -0.40628505 -0.19058649 -1.4281845
0000c0 ec 7f 7e bf 7b 7e 39 bf 97 7b 05 bf 5c 39 ca bf
       -0.99413943 -0.7245862 -0.5214171 -1.5798755
0000d0 a6 11 1d 40 08 40 b8 bf e3 c4 b8 3f bc a3 80 bf
       2.4542022 -1.4394541 1.4435085 -1.0049968
0000e0 96 0f 9b bf ac 7f 4a bf 4f 2c 7d bf e2 de a9 bf
       -1.2114131 -0.7910106 -0.98895735 -1.3271143
0000f0 ab 4b 8d bf 93 f3 ff bf e2 9e 6f bf 3f 2e 01 c0
       -1.1038717 -1.9996208 -0.9360181 -2.0184476

features.5.running_var f4 [64]
000000 5e d5 f8 3f 16 0c c8 40 e5 68 19 40 10 b6 ba 3f
       1.9440114 6.2514753 2.3970273 1.4586811
000010 87 ed 0d 40 0a 7b 1e 40 a0 1f 96 3f 77 b5 03 40
       2.2176225 2.4762597 1.1728401 2.0579507
000020 40 2d ad 3f 83 cf 1a 40 c0 d7 20 40 31 26 d2 3f
       1.3529434 2.4189155 2.5131683 1.6417905
000030 da 89 d8 3f ed 7f 04 40 d8 22 a5 40 0f 1c 3c 40
       1.6917069 2.070308 5.1605034 2.9392126
000040 a6 be 5b 40 a4 63 a7 3f 7b 90 60 3f ed 6e 6b 3f
       3.4335113 1.3077283 0.8772046 0.91966134
000050 b3 e8 cc 3f 19 6d 61 40 30 25 42 40 e2 25 b6 3f
       1.6008514 3.5222838 3.0335197 1.4230311
000060 8d de 3b 40 bf 0a 0d 40 2b b2 bb 3f 5b 01 24 40
       2.9354584 2.203781 1.4663748 2.5625827
000070 d5 98 a0 3f 6a cc 8b 40 69 1f a1 3f ed 61 4b 40
       1.2546641 4.368703 1.2587711 3.177852
000080 73 f2 3a 40 39 e5 1e 40 e1 b4 2b 40 3d 46 10 40
       2.921048 2.4827406 2.682915 2.254287
000090 11 a7 e1 3f 76 bc 06 40 08 b6 79 3f b6 ca 2d 40
       1.762911 2.1052527 0.9754338 2.7154975
0000a0 2f 44 e2 3f 12 80 3d 40 21 bd 12 40 c9 72 17 40
       1.7677058 2.9609418 2.2927935 2.366381
0000b0 10 68 9d 40 3f 5c 94 3f 75 5c 7f 3f 47 0c dc 3f
       4.918953 1.1590651 0.99750453 1.7191247
0000c0 6f 11 ba 3f 05 94 97 3f a6 b8 15 40 4f 82 e0 3f
       1.453657 1.1842047 2.339395 1.7539767
0000d0 60 9a 5c 40 67 8b d8 3f f3 66 14 40 98 ba 91 3f
       3.4469223 1.6917542 2.3187835 1.1385069
0000e0 00 46 fc 3f aa 55 bb 3f bb 9b ec 3f 62 f6 df 3f
       1.9708862 1.4635518 1.8485025 1.7497065
0000f0 09 c8 0a 40 0d 4d 2c 40 3f 78 c8 3f 10 9e 1f 40
       2.1684592 2.6922028 1.5661696 2.4940224

features.8.weight f4 [128, 64, 3, 3]
000000 3a e4 ce 3c 37 e2 14 3d b1 8f 82 3c e0 97 00 bd
       0.025255311 0.036348548 0.015937658 -0.03139484
000010 96 55 1a 3d cc 16 0e bd 4f 56 3a bd 78 94 53 bc
       0.037679277 -0.03468971 -0.045492467 -0.012913816
000020 f3 c3 35 bd 75 99 00 3d 76 55 7b 3d c7 76 df 3c
       -0.044376325 0.031396348 0.0613608 0.027278317
000030 92 88 34 3d 17 a2 86 3d 83 b1 f3 3c c8 9a 9f 3d
       0.044075556 0.06573885 0.02974773 0.07793194
000040 e0 67 12 3d 73 4a 6c 3d 45 17 ed 3d d9 ae cc 3d
       0.035743594 0.057688188 0.11576704 0.09994287
000050 9b ea 7d bc a2 12 82 3d 06 59 8f 3c 68 0a 8d bc
       -0.015497829 0.0635121 0.017498504 -0.017216876
000060 94 b6 31 3d b4 c7 1b 3d 91 67 62 bd 03 86 46 bd
       0.04338701 0.03803225 -0.05527455 -0.048467647
000070 dd 43 32 bd f8 22 4a bd 3f 00 ef ba 99 bd 07 3d
       -0.04352175 -0.049349755 -0.0018234326 0.0331398
000080 a6 96 c9 bc 8f 84 2f bd 6a 08 15 bd 4c 75 47 bd
       -0.024607968 -0.042851027 -0.036384977 -0.048695847
000090 74 d1 90 3d d1 0d 3d bc 7c 8d bc 3c 87 6e c7 3d
       0.070712 -0.011538939 0.023016684 0.09737878
0000a0 6a f5 dd 3c 90 a6 47 bc 0b e3 4e 3d 16 a1 30 bd
       0.027094562 -0.012185708 0.050509494 -0.043122374
0000b0 18 27 28 3d 47 65 22 bc 12 7e 12 3d c5 2c 1d bb
       0.041052908 -0.009911842 0.03576476 -0.0023982984
0000c0 0f 1a 39 3d 28 49 6c 3c df 19 1f bb 9f 72 64 3d
       0.045190867 0.014421739 -0.0024276895 0.055773374
0000d0 b8 17 fb 3c 52 da 99 3d c8 fe 8a 3c bb 72 9a 3d
       0.030650958 0.075123444 0.016967192 0.07541414
0000e0 e2 7b 20 3d 98 0e a6 3c 82 5b 5a 3d 94 00 ba 3c
       0.039180644 0.02027063 0.053309925 0.022705354
0000f0 50 ac 45 3a 5c ed b0 3b c8 e0 3e 3d 59 4c b9 3d
       0.000754063 0.005399389 0.046601087 0.09047765
000100 bd 6e af 3d 97 11 cb 3d da 66 9f 3c 97 c5 e6 3c
       0.085660435 0.09915464 0.019458223 0.02817039
000110 ba 15 fe 3a bc 16 ad 3d e3 19 4a 3d 8f 81 0b 3d
       0.0019385137 0.08451602 0.049341094 0.034059104
000120 e7 eb be 3c 4e 1b 0c bb e2 77 53 bc 48 96 20 3b
       0.023305846 -0.002137858 -0.012907 0.0024503637
000130 a0 ec 36 bc c2 aa da 3b ef d1 29 bd 31 2d 28 bd
       -0.011164814 0.006673188 -0.041459974 -0.041058723
000140 2d c0 7d bd 66 97 09 3d e3 6b 7e 3d a8 31 18 bd
       -0.06195085 0.03359165 0.062114608 -0.03715673
000150 17 fe 3f 3d 8d 95 0f 3d 8d de e1 bc d1 aa 4e 3d
       0.04687318 0.035054732 -0.02757194 0.050455872
000160 27 01 4a 3b 0b 98 86 bd 6e b5 6a 3c 27 f7 33 3b
       0.003082344 -0.06571969 0.014325483 0.0027460547
000170 7f 0e 27 bd 20 f6 94 3b a1 d9 65 bc 0c 9c 4f bd
       -0.04078531 0.004545942 -0.014028938 -0.050685927
000180 2e 8e 8d 3c cd 1f 37 3c 2b 01 1a bc 5a 3f fe 3c
       0.01727971 0.0111770155 -0.0093996925 0.031036068
000190 18 63 f4 3c c4 23 9e bc 29 c1 86 3c 9a 55 a7 bc
       0.029832408 -0.019304164 0.016449528 -0.02042656
0001a0 3e da 72 3c 3c f0 38 3d 35 fc 33 3d d3 c2 e9 3c
       0.014822541 0.04515098 0.043941695 0.028535282
0001b0 a9 13 39 3c d5 cf 1c 3d 41 33 91 bc 44 af 2a 3b
       0.011296191 0.03828414 -0.017724635 0.0026044408
0001c0 47 9c 1e 3d 98 dd 8f bb eb 95 42 3d ab 05 82 3d
       0.038723256 -0.0043904297 0.047506254 0.06348737
0001d0 43 a5 9e 3d f1 76 3d 3a 02 0c 49 3d aa d5 63 3c
       0.07746365 0.00072275015 0.049083717 0.013905922
0001e0 3a 54 9f 3c 47 0a 20 3d a7 e6 b0 3c e9 64 f9 3d
       0.019449342 0.0390723 0.021594359 0.1217745
0001f0 39 19 b2 3d e2 29 09 3e fa 6f 53 3c 53 4e a7 3d
       0.08696217 0.13394883 0.012905115 0.08169236
000200 09 53 66 3d a2 9f a4 3d 2d 34 b0 3d 13 72 87 3d
       0.056231532 0.0803826 0.08603702 0.06613555
000210 80 9a 82 3d c3 db c5 3d 85 92 8d 3d ea b2 1c bc
       0.06377125 0.09661057 0.06912712 -0.009564141
000220 e2 b6 de 3c 7d ca 47 bb 89 84 11 3d b1 8a 73 3c
       0.027186815 -0.0030485683 0.035526786 0.01486461
000230 cd 68 e3 3c da 8f 5a 3d 1c b3 30 3d 1b 6d 40 3c
       0.027759934 0.053359844 0.043139562 0.011744763
000240 8d 83 a6 bc e7 d8 d0 3b 2a 81 5d bb b9 01 67 bd
       -0.0203264 0.006373513 -0.0033798912 -0.056398127
000250 4a 91 31 bd 7d 46 0b bd 87 f1 07 bd 5b 99 28 bd
       -0.04335145 -0.03400277 -0.033189323 -0.041161876
000260 4e b4 ba 3c 44 f9 22 bc 91 d2 4d bc 33 83 ba ba
       0.022791054 -0.009947125 -0.01256241 -0.0014229774
000270 81 a3 97 3b 7a a9 42 bd 5f bf 0e bd 67 b3 d3 bc
       0.0046276455 -0.047524907 -0.034850474 -0.025842382
000280 ab b7 1b 3c 02 a1 00 bd b7 99 7d 39 40 76 03 3c
       0.009504239 -0.03140355 0.00024185223 0.0080237985
000290 d9 2b a9 3d 04 bf bc bc db db 82 bd 5a 57 0d 3d
       0.082603164 -0.023040302 -0.0638959 0.034507133
0002a0 83 2f b1 bd 04 29 22 bd b5 7d df 3c 15 02 ec bc
       -0.0865164 -0.039589897 0.027281621 -0.028809587
0002b0 fa 57 8f 3c 89 13 08 bd a8 5b 33 3d 25 77 34 3d
       0.017498005 -0.033221755 0.043788582 0.044058938
0002c0 9f b4 84 3d ff b0 f5 3c 28 00 1b 3d 4b b9 c0 3b
       0.06479763 0.029991625 0.037841946 0.0058814636
0002d0 dc 1c ce bc be 3e fd 3b f8 67 a0 bb fe 5d 0e bd
       -0.025160246 0.0077284267 -0.0048952065 -0.034757607
0002e0 37 8a 5e bd 34 a8 eb bc 76 d0 cb 3c c0 74 6f bd
       -0.05433103 -0.028766729 0.024879675 -0.05846095
0002f0 95 0f 74 bd 47 5a 4c bd 93 4f 74 bd 76 d5 b3 bd
       -0.059585173 -0.049890783 -0.0596462 -0.08780949
000300 a3 7d 1a bd 1b 7b b7 bb a0 fd 9d bd 99 b2 d1 bd
       -0.037717473 -0.005599392 -0.07714391 -0.10239143
000310 a5 bd 33 bd 23 07 62 bd cc 2a d7 bc 4a 17 91 bd
       -0.04388203 -0.055182587 -0.026265524 -0.0708452
000320 d8 d9 52 bc fb ec 3d bc a6 3b 7f bc 34 83 b0 3a
       -0.012869321 -0.011592145 -0.015578186 0.0013466836
000330 2b d1 2a bd 5b 36 88 bd 1f 10 2c bd fc d1 e9 3b
       -0.041703384 -0.066509925 -0.04200756 0.007135628
000340 a1 5a 48 3b 86 9f 59 bd 26 69 e6 3b 1a 8e aa 3c
       0.0030571597 -0.05313065 0.0070315776 0.020819712
000350 e5 dd 22 bd 2f 65 21 3d 0f 39 b1 3c ea be b5 bc
       -0.039762396 0.039403137 0.021633653 -0.022185761
000360 08 f1 18 3d a4 7e 09 3d f5 96 53 3d a5 91 fb bb
       0.03733924 0.03356804 0.051657636 -0.0076772743
000370 d2 fa 8e 3d e6 2d ce 3b 4e e1 8b 3d f3 20 d3 3d
       0.06981434 0.0062920926 0.06830083 0.10309019
000380 bb 9b 77 3d 5c a6 20 bd f1 5c 88 3c 22 8d 32 3d
       0.06045125 -0.039221153 0.01664588 0.043591626
000390 24 12 6c 3c dc 47 7a 3b 92 35 d4 3c 7b c0 6f 3c
       0.014408622 0.0038189804 0.02590445 0.014633293
0003a0 e0 a8 5a 3d ad f6 b5 ba 26 25 34 3d 77 db c5 3d
       0.053383708 -0.0013882719 0.04398074 0.09661
0003b0 52 08 21 3d 16 21 1f 3c 9b b0 86 3d bb ae e7 3c
       0.039314575 0.009712478 0.065766536 0.02828156
0003c0 29 8f 37 3d 92 bb dd bb 7c 8d 6a bd de f1 26 3d
       0.044814263 -0.006766745 -0.057263836 0.040758006
0003d0 d9 69 80 3d 2a 3b ef 3b 76 da 32 3d cf 40 a7 bc
       0.06270189 0.007300754 0.04366537 -0.020416645
0003e0 d7 00 c8 bc a4 27 08 3d c8 ae 4b 3d b6 c3 87 3c
       -0.024414463 0.03324093 0.04972723 0.016572814
0003f0 7d 31 f3 3c b2 f3 0d 3d 97 6a 66 3c c8 d6 28 3d
       0.029686684 0.034656234 0.014063499 0.041220456

features.8.bias f4 [128]
000000 7a 45 9c bc 25 8f 07 bd ce a6 3c bd 3d 88 90 bc
       -0.019076098 -0.033095498 -0.046057515 -0.017643088
000010 32 4a f9 39 36 16 81 3d 28 0c f4 3b 6b c4 b3 ba
       0.0004754826 0.063030645 0.007447738 -0.0013715153
000020 8e 10 2e bd 9d 2b 24 ba 23 b4 af 3d 69 45 35 3d
       -0.042496257 -0.00062626024 0.0857928 0.044255648
000030 30 45 30 3c 67 ba a5 bd df 48 87 3c c7 03 3a bd
       0.010758683 -0.08092194 0.01651424 -0.04541376
000040 d7 d9 8a 3d b0 fe ce bc 16 50 45 3d 57 a6 09 3d
       0.06779831 -0.025267929 0.04817208 0.0336059
000050 b4 06 1f 3c 6e 2d 3b bd 6b 94 98 bc 4a a6 99 3c
       0.009706188 -0.045697622 -0.018625459 0.01875605
000060 41 c6 1c 3b d0 fd 33 3d 2e c6 cf 3c 19 5c c2 3c
       0.002392188 0.043943226 0.025363054 0.023725556
000070 c7 9c b4 3c f0 2b cf b8 f7 f7 fb bc e8 b1 19 bd
       0.022047414 -9.878713e-05 -0.030757887 -0.03752318
000080 b5 80 72 3d 7d ff 10 3d 3b a7 ad 3c 67 19 41 bd
       0.059204776 0.035399903 0.021197906 -0.047143366
000090 6e 89 db bc 2b 1b 91 bc 1d ab 21 bd 63 dc 98 bd
       -0.02679893 -0.01771315 -0.039469827 -0.074639104
0000a0 13 3c fb bc 0e b9 62 bc 72 6b 4d bd cc a1 9f bc
       -0.030668294 -0.013838066 -0.050151296 -0.01948633
0000b0 90 17 0e 3d 81 0d 8b bd 68 73 47 bc ff 60 56 3d
       0.03469044 -0.06789685 -0.012173511 0.052338596
0000c0 44 23 6e 3d 90 0a 13 bd 94 3f 5e 3b bd 3e 23 bc
       0.0581391 -0.035898745 0.0033912407 -0.009963688
0000d0 68 df a2 bc 4e 54 06 3c 44 8c 78 3d 20 7b 49 bc
       -0.019881919 0.008198811 0.060680643 -0.012297422
0000e0 2b 33 17 3a 59 10 01 bc 11 7d 6d 3d a9 f6 f4 bc
       0.00057678175 -0.007877433 0.0579806 -0.029902773
0000f0 a6 33 5a bd 2d 4b 6e 3c 8e b3 37 bc 5d 16 cd ba
       -0.053271912 0.0145442905 -0.011212243 -0.0015646924
000100 18 03 8c 3d 69 29 d8 bc 60 ea 42 bc 9b ce 41 bd
       0.068365276 -0.026386933 -0.0118967 -0.047316175
000110 88 ac b7 3b 2f de c3 bd 40 05 4a bc b5 8a ba bc
       0.005605284 -0.095638625 -0.012330353 -0.022771219
000120 95 8d f9 3c 76 45 8d bc de 0d ea 3c e9 e6 8d bd
       0.03046302 -0.017245036 0.028571066 -0.06928808
000130 f7 18 dd 3c 4f 42 5b 39 f1 41 c1 bc 9c 23 c1 bd
       0.026989443 0.0002091017 -0.023591014 -0.0943062
000140 bf 74 10 bd 38 72 4d bd 1c 4d 90 bd 56 dc a0 bb
       -0.035267588 -0.050157756 -0.070459574 -0.0049090786
000150 3b c4 ee bc 69 ec 6b bd ad a3 6a bd 6f 3d 93 bd
       -0.029146304 -0.057598505 -0.057285 -0.07189452
000160 44 76 6f bc 4b bd 47 bc 9e df 50 3c cd a4 fa bc
       -0.014615599 -0.012191127 0.012748627 -0.030596161
000170 28 4d 5e 3d 1b 03 79 bc ad 65 eb bc 43 c5 4a bd
       0.0542728 -0.015198494 -0.028735006 -0.04950453
000180 13 ea 20 bc c6 9a f7 bb 0e be e4 3c c1 99 51 bd
       -0.009821433 -0.007556292 0.027922656 -0.05117202
000190 7e 48 03 3d 26 d3 80 bd 01 d5 63 bc 79 c2 11 bd
       0.032051556 -0.06290273 -0.013905765 -0.035585854
0001a0 9a a4 58 bc bc 67 9d bc 0f 45 0f 3c ba 1f 71 bb
       -0.013222838 -0.019214503 0.008744492 -0.0036792592
0001b0 01 b0 3e 3c 2f 31 1b 3c 5b 5e ec 3c 56 12 42 bc
       0.011638642 0.0094721755 0.028853586 -0.011845192
0001c0 6a 7b 22 bd f4 e8 0d bd c4 fe 6b 3c 73 e5 80 bc
       -0.039668478 -0.03464599 0.014404003 -0.01573441
0001d0 89 0b 7a 3c 61 8c 31 bd 69 8e 5a 3c 84 a4 49 3c
       0.015261539 -0.043346766 0.013339617 0.01230729
0001e0 75 49 43 bd 61 f5 37 bd cf a2 85 3d e0 e0 77 bc
       -0.047677476 -0.044911746 0.06525194 -0.015129298
0001f0 c3 3d 01 bd f7 77 34 3d cd 52 64 bd 16 ad 84 3d
       -0.03155304 0.04405972 -0.055743027 0.06478326

features.9.weight f4 [128]
000000 e7 8b 85 3f b0 23 8a 3f 79 0a 93 3f b6 18 94 3f
       1.043332 1.0792141 1.1487571 1.1570041
000010 dd 2a 91 3f 52 32 8d 3f 2d 5d 8c 3f 3e 62 87 3f
       1.1341206 1.1030982 1.0965935 1.0576856
000020 59 75 95 3f 4a 42 8c 3f 67 fc 8e 3f 15 1e 8e 3f
       1.1676437 1.095773 1.1170777 1.110293
000030 ab c8 89 3f b8 76 8a 3f 6f 95 8a 3f d9 4a 8b 3f
       1.0764364 1.081748 1.0826854 1.0882217
000040 8b 55 8b 3f ae 1d 90 3f e8 95 91 3f 02 d0 93 3f
       1.0885481 1.1259058 1.1373873 1.1547854
000050 68 1a 90 3f b1 4d 89 3f 33 8b 8b 3f 64 f9 8c 3f
       1.1258059 1.0726835 1.0901855 1.1013608
000060 8e eb 86 3f 5c ef 8e 3f 7a 8a 91 3f c4 8c 8b 3f
       1.0540636 1.1166797 1.1370385 1.0902333
000070 c1 22 89 3f 7f 6b 8c 3f 84 e3 8c 3f 99 ce 94 3f
       1.0713731 1.0970305 1.1006932 1.1625549
000080 72 4b 8e 3f 18 89 8e 3f be 65 8c 3f 7c b0 8b 3f
       1.1116774 1.1135588 1.0968549 1.0913234
000090 60 84 8d 3f 05 4c 8e 3f 2b fc 8d 3f 32 fd 90 3f
       1.1056023 1.1116949 1.109258 1.1327269
0000a0 97 a8 8f 3f 5f d1 8c 3f 6b 61 8b 3f 7c f4 8a 3f
       1.1223325 1.1001395 1.0889105 1.0855861
0000b0 a5 30 8e 3f b1 24 8f 3f 32 ae 8c 3f 7c 3b 85 3f
       1.1108595 1.1183072 1.099066 1.0408778
0000c0 4c a1 8a 3f b3 71 8d 3f 54 0a 8d 3f 16 ff 8a 3f
       1.0830474 1.1050323 1.1018777 1.0859096
0000d0 e8 d7 90 3f a0 f3 89 3f 0a fc 8b 3f 31 c4 92 3f
       1.1315889 1.0777473 1.0936291 1.1466123
0000e0 97 88 89 3f 04 29 88 3f 95 48 91 3f d7 f5 8b 3f
       1.0744809 1.0637517 1.1350275 1.0934399
0000f0 62 68 8f 3f 9d e8 8b 3f 32 25 92 3f d1 40 8a 3f
       1.120373 1.0930363 1.1417601 1.080103
000100 c1 4b 87 3f a5 93 8f 3f d6 9f 86 3f 8e 12 8e 3f
       1.0569993 1.1216933 1.0517528 1.1099412
000110 3e f4 88 3f 9d 3a 8d 3f 33 92 85 3f 30 f4 8d 3f
       1.0699537 1.1033512 1.0435241 1.1090145
000120 82 ac 92 3f c0 9f 85 3f c0 24 8b 3f 0a aa 8e 3f
       1.1458895 1.0439377 1.087059 1.1145642
000130 94 2d 8e 3f 50 e1 8e 3f 1a a7 8f 3f a0 58 92 3f
       1.1107659 1.116251 1.122287 1.1433296
000140 4b 96 8e 3f 84 04 91 3f cc 78 84 3f a1 29 8b 3f
       1.1139616 1.1329503 1.0349364 1.0872079
000150 12 f3 8b 3f 81 3c 8c 3f 6f 35 98 3f 64 61 91 3f
       1.0933554 1.0955964 1.1891307 1.1357846
000160 88 ad 88 3f 8f 75 8e 3f 9b 2d 8f 3f 2a 67 8d 3f
       1.0677958 1.1129626 1.1185793 1.1047108
000170 c4 89 82 3f 6d 09 92 3f ff 53 89 3f c4 ea 90 3f
       1.0198293 1.1409127 1.0728759 1.1321645
000180 0e 6b 96 3f 91 ff 8f 3f 25 56 8d 3f 2f 48 8c 3f
       1.175142 1.1249868 1.1041914 1.0959529
000190 24 3c 95 3f 19 a4 8c 3f 70 a3 88 3f d0 43 92 3f
       1.1658978 1.0987579 1.0674877 1.1426945
0001a0 e7 4f 93 3f ce ef 8b 3f 28 b3 91 3f 9f 1a 90 3f
       1.1508759 1.0932558 1.1382799 1.1258124
0001b0 96 50 8b 3f ee e1 8b 3f 5d cc 88 3f 87 4d 8c 3f
       1.0883968 1.0928323 1.0687367 1.096116
0001c0 70 5e 86 3f 5f 60 94 3f 79 3e 91 3f eb 39 85 3f
       1.049757 1.159191 1.134719 1.04083
0001d0 cf 81 8f 3f 0c 38 8b 3f 07 fe 88 3f 7d 72 8b 3f
       1.121149 1.0876479 1.0702523 1.0894314
0001e0 02 01 8e 3f 64 f7 89 3f 8f df 8a 3f 71 40 8a 3f
       1.1094058 1.0778623 1.0849475 1.0800916
0001f0 49 46 91 3f 5d 1a 8e 3f 20 37 8f 3f 2b fd 8e 3f
       1.1349574 1.1101795 1.1188698 1.1171011

features.9.bias f4 [128]
000000 5f 53 6f bd 74 6a ae bc d8 66 bf 3c e2 5e f2 bd
       -0.05842912 -0.021290995 0.02336447 -0.11834504
000010 6d 02 9a bd a4 38 8f bd e8 16 19 bc 8e 27 81 bd
       -0.07519994 -0.06993225 -0.00934384 -0.063063726
000020 2d 96 a1 bd b1 0d 08 bc 1d 7a 31 bd 15 22 b1 bd
       -0.07889972 -0.008304046 -0.043329347 -0.08649079
000030 35 9d ed 3b 0f fe 98 3c e4 1c d5 bd 57 fd 5f bd
       0.0072514066 0.018675832 -0.10405901 -0.054684963
000040 b4 bd f8 bd ce a9 5e bd c0 20 69 3c 6a fa 5a bd
       -0.12145558 -0.054361157 0.014229 -0.05346147
000050 93 47 c6 bd 15 ce 1b 3c 1c 11 c4 3a d4 12 0c bd
       -0.096816204 0.009509583 0.0014958712 -0.034197643
000060 36 e6 e0 bc 2e 8a b5 bc da ad 8f bc ef 7a 82 bc
       -0.027453523 -0.022160616 -0.017538954 -0.01592776
000070 07 98 dd bd 9e f6 01 bd 95 52 32 bd df 86 4e bc
       -0.108200125 -0.031729333 -0.043535788 -0.012605398
000080 1d a5 98 bd f0 cb f2 bc e6 a2 5a 3b c4 7d 3f 3c
       -0.07453368 -0.02963826 0.0033361255 0.0116877
000090 a4 8e 83 bd 18 5c 3b 3d e9 43 ec bd 0c be 06 be
       -0.06423691 0.045742124 -0.1153639 -0.13158435
0000a0 cf 9b cd bd 37 31 9c 3c 61 c1 b8 bb 15 d9 c7 bd
       -0.10039484 0.019066436 -0.005638287 -0.09758202
0000b0 ed f0 99 3c 73 de ba 3c a8 49 fe bc 20 6f 5e bd
       0.01879164 0.02281115 -0.031040981 -0.054305196
0000c0 f3 01 e4 bd 9c 9b 8e bd fb 3f 53 bc 58 6f 76 bb
       -0.11133184 -0.06963274 -0.012893672 -0.0037602987
0000d0 a4 e0 00 3c e7 a6 dc bd b4 b4 e6 bc c2 2a c0 bc
       0.0078660585 -0.107740216 -0.028162338 -0.023457889
0000e0 18 38 ff bd 48 20 24 be fb f3 f2 3b e9 6b 71 bd
       -0.12461871 -0.1602794 0.0074143386 -0.0589408
0000f0 a3 7a b7 bd 78 ec 6e bd 4c 25 85 3c 8a 29 ce bc
       -0.08958938 -0.058330983 0.016253136 -0.025166292
000100 50 01 d6 bc 41 35 e4 3b 89 76 eb b9 b9 e6 20 bd
       -0.026123673 0.006964356 -0.00044911008 -0.039282534
000110 bb e8 82 bc 53 21 9c 3a 09 f3 03 be c7 fe 97 bc
       -0.015980115 0.0011911787 -0.1288568 -0.018554104
000120 ce f7 0a 3c 83 da 25 be 3b a8 7d bc c7 12 a4 3c
       0.008481933 -0.16196637 -0.015482004 0.020028485
000130 0e 07 a4 bb 9f fb 01 3c 8f af 1d 3d ae 7c 8a bd
       -0.005005724 0.007933526 0.038497504 -0.06762062
000140 7f 56 75 bc 9b 5b 91 bc eb d7 71 bd 00 55 d1 bc
       -0.014974236 -0.017743876 -0.059043806 -0.025553226
000150 88 be 4c ba 9e c3 ff bd 79 03 7f bd 41 0d f5 3b
       -0.0007810374 -0.12488483 -0.06225917 0.0074783866
000160 84 8d dc bd f9 97 e0 3c 0d b7 01 be 9b f4 30 bc
       -0.107691795 0.027416216 -0.12667485 -0.010800506
000170 b3 0e 64 bd 82 bd 89 bc 3e a7 80 bc ac e3 f7 bb
       -0.05567808 -0.016813997 -0.015704747 -0.0075649824
000180 a2 b1 d6 bd b0 89 dc bd e8 0d 3e bc c2 8d c4 bb
       -0.104830995 -0.10768449 -0.011599995 -0.005998344
000190 08 c4 ce bc 0e e2 6f bd 56 07 d6 bd 5c 71 ac bd
       -0.02523996 -0.058565192 -0.10450618 -0.08420059
0001a0 57 1c ac 3c 13 8e 14 bd fb 1d 90 3c b4 bb f1 bd
       0.021009607 -0.036268305 0.01759242 -0.1180338
0001b0 ff ed e9 bd 16 ce 6e ba 7e 47 61 bd 33 c8 d9 bd
       -0.11422347 -0.00091096887 -0.05499982 -0.10633888
0001c0 9f 7e e9 bc 67 04 cd bd 47 e1 56 bc 36 cc 2c bd
       -0.02850276 -0.10010605 -0.013115234 -0.04218694
0001d0 18 4e 8c bd f9 54 99 bd a6 5a 5a bc 2a fa bc bd
       -0.06850833 -0.074869104 -0.013327276 -0.092274025
0001e0 5d 01 02 bd 33 71 cd bd 6d cc f4 bd ab 1e f0 bd
       -0.03173958 -0.10031357 -0.119530536 -0.117245995
0001f0 da 47 1e bb f9 33 f6 ba 5a 6b 96 3c ca 9b f2 ba
       -0.0024151714 -0.00187838 0.018361736 -0.0018509564

features.9.running_mean f4 [128]
000000 e0 6f e0 3f a0 5c af bd 86 92 01 3e 0b b6 0d c0
       1.7534142 -0.08562589 0.1265355 -2.214236
000010 74 55 9b bf 93 16 8c 3f 25 83 c3 3e 32 e1 16 3f
       -1.2135453 1.0944389 0.38185993 0.5893737
000020 88 9b d3 bf 9a 95 52 bf 7f d2 b5 bf cc c4 94 bf
       -1.6531839 -0.82259524 -1.4204863 -1.1622558
000030 58 ba 97 3f 04 2d 0a 40 00 33 c5 bd ba 43 96 3d
       1.1853743 2.1589975 -0.09628868 0.073371366
000040 e2 39 b8 3f d3 37 4d bf f0 f4 8b 3e 9d 62 a1 bf
       1.4392664 -0.80163306 0.2733531 -1.2608219
000050 49 68 db bf cc 40 29 be d9 99 f8 3e 10 1e eb be
       -1.71412 -0.16528624 0.48554876 -0.45921373
000060 df b3 81 3d a2 1a 43 be 18 f6 43 bf 03 c1 96 3e
       0.06333136 -0.19053128 -0.76547384 0.2944413
000070 e1 55 15 40 18 e2 47 40 0a ce fc 3f fc 4e 74 3f
       2.3333666 3.1231747 1.9750378 0.9543302
000080 79 0a 59 3e 50 ec 21 3f 08 56 7b 3d dc 8c 1d 3f
       0.21195401 0.6325121 0.061361343 0.6154306
000090 58 11 40 3e 62 ca 12 3f de 81 10 3d 27 1b b4 3e
       0.18756616 0.5734006 0.0352801 0.35176966
0000a0 e2 f2 10 bf e7 3b bf 3f 77 9e 1f 3f 08 09 4f 3f
       -0.5662061 1.4940156 0.62351173 0.80873156
0000b0 e9 3d 60 3e 2e b9 9e 3e 19 16 28 bf 7a 42 7b bf
       0.21898617 0.31000656 -0.6565872 -0.9814831
0000c0 ad cf 8b 3e 5f 33 81 3e 19 88 fe 3e 50 1d db bf
       0.27306882 0.25234506 0.4971321 -1.711832
0000d0 c7 2c e3 be 5a 48 a4 3d 7d f4 13 bf 09 0c 24 3f
       -0.443701 0.080216125 -0.57794935 0.64080864
0000e0 00 df c3 3e a0 61 99 3f a8 bb 7b be 9e 37 96 bd
       0.38256073 1.1982918 -0.24583304 -0.07334827
0000f0 b4 0e d3 3e f7 c7 8b 3f 58 d5 88 be a3 c0 da 3e
       0.41222155 1.09204 -0.26725268 0.42725095
000100 53 bb a1 3e aa 63 9a bb 60 31 36 3f ce a5 5d be
       0.3158823 -0.004711588 0.7116909 -0.2164528
000110 e7 52 0e bf 13 47 0d 3d 7b 5e c6 3f 45 e1 18 c0
       -0.5559525 0.03449161 1.5497583 -2.3887494
000120 bf 02 12 3f 39 b8 d7 3f 58 d6 f8 3e 2a e5 97 bd
       0.5703544 1.6853095 0.4860103 -0.074167565
000130 3c a8 69 bf 96 d4 45 bd 28 f4 21 3e be 05 a2 bf
       -0.9127233 -0.04829844 0.15815794 -1.2658002
000140 d5 8a 89 3e 2f ea 8f bf e0 d0 88 3d b2 1e c3 bb
       0.26863733 -1.1243342 0.06680465 -0.005954587
000150 c1 fd b3 be a7 f2 7e 3e 16 6d b8 bf 64 79 95 3f
       -0.35154536 0.24897252 -1.440829 1.167767
000160 0c eb c3 3d 3c a3 af 3e ed 78 09 3f 58 fb 2c c0
       0.09566316 0.34304225 0.53700143 -2.7028408
000170 a8 83 0f bf 98 fb 28 bf 7f 54 73 3e 44 18 39 bf
       -0.56060266 -0.660089 0.23762701 -0.7230265
000180 48 e4 0b c0 e8 80 99 3f f8 f4 11 bf 91 9d 94 3e
       -2.1858082 1.1992464 -0.5701442 0.29026464
000190 c2 93 9e bf 1f 33 04 3f 7e d1 b6 be 9b f4 98 bf
       -1.2388842 0.51640505 -0.35706705 -1.1949648
0001a0 96 7c 25 3f 4a 25 f9 3f e4 69 95 bf 98 e6 62 3f
       0.6464323 1.9464505 -1.167294 0.8863311
0001b0 d0 38 f6 3e 18 b6 eb be 97 81 1d bf c9 f8 da 3d
       0.4809022 -0.46037364 -0.61525863 0.10691983
0001c0 87 6c dd 3e 8f f0 ed bf d4 21 84 3f be 61 8b be
       0.43246862 -1.8589038 1.0322824 -0.2722301
0001d0 08 e0 05 c0 3f a6 8e bf da da 1d 40 60 91 29 bf
       -2.0917988 -1.1144484 2.4664826 -0.6623745
0001e0 92 fc f0 3d 1d 82 97 3e 6d 12 4d 3f d2 6b e3 3e
       0.11766924 0.29591456 0.8010624 0.44418198
0001f0 05 8e 02 bf a1 9a 09 3f a3 51 b2 3e 2c 06 58 3f
       -0.50997955 0.5375157 0.3482791 0.8438442
